…
E0907 22:28:29.905115  3832 upgrade_proto.cpp:620] Attempting to upgrade input file specified using deprecated V1LayerParameter: examples/caltech/KevinNet_CIFAR10_48_train.prototxt
I0907 22:28:29.906116  3832 upgrade_proto.cpp:628] Successfully upgraded file specified using deprecated V1LayerParameter
I0907 22:28:29.906116  3832 net.cpp:42] Initializing net from parameters: 
name: "KevinNet_CIFAR10"
state {
  phase: TRAIN
}
layer {
  name: "data"
  type: "Data"
  top: "data"
  top: "label"
  transform_param {
    mirror: true
    crop_size: 227
    mean_file: "examples/caltech/mean_train.binaryproto"
  }
  data_param {
    source: "examples/caltech/caltech_train_leveldb"
    batch_size: 32
  }
}
layer {
  name: "conv1"
  type: "Convolution"
  bottom: "data"
  top: "conv1"
  param {
    lr_mult: 1
    decay_mult: 1
  }
  param {
    lr_mult: 2
    decay_mult: 0
  }
  convolution_param {
    num_output: 96
    kernel_size: 11
    stride: 4
    weight_filler {
      type: "gaussian"
      std: 0.01
    }
    bias_filler {
      type: "constant"
      value: 0
    }
  }
}
layer {
  name: "relu1"
  type: "ReLU"
  bottom: "conv1"
  top: "conv1"
}
layer {
  name: "pool1"
  type: "Pooling"
  bottom: "conv1"
  top: "pool1"
  pooling_param {
    pool: MAX
    kernel_size: 3
    stride: 2
  }
}
layer {
  name: "norm1"
  type: "LRN"
  bottom: "pool1"
  top: "norm1"
  lrn_param {
    local_size: 5
    alpha: 0.0001
    beta: 0.75
  }
}
layer {
  name: "conv2"
  type: "Convolution"
  bottom: "norm1"
  top: "conv2"
  param {
    lr_mult: 1
    decay_mult: 1
  }
  param {
    lr_mult: 2
    decay_mult: 0
  }
  convolution_param {
    num_output: 256
    pad: 2
    kernel_size: 5
    group: 2
    weight_filler {
      type: "gaussian"
      std: 0.01
    }
    bias_filler {
      type: "constant"
      value: 1
    }
  }
}
layer {
  name: "relu2"
  type: "ReLU"
  bottom: "conv2"
  top: "conv2"
}
layer {
  name: "pool2"
  type: "Pooling"
  bottom: "conv2"
  top: "pool2"
  pooling_param {
    pool: MAX
    kernel_size: 3
    stride: 2
  }
}
layer {
  name: "norm2"
  type: "LRN"
  bottom: "pool2"
  top: "norm2"
  lrn_param {
    local_size: 5
    alpha: 0.0001
    beta: 0.75
  }
}
layer {
  name: "conv3"
  type: "Convolution"
  bottom: "norm2"
  top: "conv3"
  param {
    lr_mult: 1
    decay_mult: 1
  }
  param {
    lr_mult: 2
    decay_mult: 0
  }
  convolution_param {
    num_output: 384
    pad: 1
    kernel_size: 3
    weight_filler {
      type: "gaussian"
      std: 0.01
    }
    bias_filler {
      type: "constant"
      value: 0
    }
  }
}
layer {
  name: "relu3"
  type: "ReLU"
  bottom: "conv3"
  top: "conv3"
}
layer {
  name: "conv4"
  type: "Convolution"
  bottom: "conv3"
  top: "conv4"
  param {
    lr_mult: 1
    decay_mult: 1
  }
  param {
    lr_mult: 2
    decay_mult: 0
  }
  convolution_param {
    num_output: 384
    pad: 1
    kernel_size: 3
    group: 2
    weight_filler {
      type: "gaussian"
      std: 0.01
    }
    bias_filler {
      type: "constant"
      value: 1
    }
  }
}
layer {
  name: "relu4"
  type: "ReLU"
  bottom: "conv4"
  top: "conv4"
}
layer {
  name: "conv5"
  type: "Convolution"
  bottom: "conv4"
  top: "conv5"
  param {
    lr_mult: 1
    decay_mult: 1
  }
  param {
    lr_mult: 2
    decay_mult: 0
  }
  convolution_param {
    num_output: 256
    pad: 1
    kernel_size: 3
    group: 2
    weight_filler {
      type: "gaussian"
      std: 0.01
    }
    bias_filler {
      type: "constant"
      value: 1
    }
  }
}
layer {
  name: "relu5"
  type: "ReLU"
  bottom: "conv5"
  top: "conv5"
}
layer {
  name: "pool5"
  type: "Pooling"
  bottom: "conv5"
  top: "pool5"
  pooling_param {
    pool: MAX
    kernel_size: 3
    stride: 2
  }
}
layer {
  name: "fc6"
  type: "InnerProduct"
  bottom: "pool5"
  top: "fc6"
  param {
    lr_mult: 1
    decay_mult: 1
  }
  param {
    lr_mult: 2
    decay_mult: 0
  }
  inner_product_param {
    num_output: 4096
    weight_filler {
      type: "gaussian"
      std: 0.005
    }
    bias_filler {
      type: "constant"
      value: 1
    }
  }
}
layer {
  name: "relu6"
  type: "ReLU"
  bottom: "fc6"
  top: "fc6"
}
layer {
  name: "drop6"
  type: "Dropout"
  bottom: "fc6"
  top: "fc6"
  dropout_param {
    dropout_ratio: 0.5
  }
}
layer {
  name: "fc7"
  type: "InnerProduct"
  bottom: "fc6"
  top: "fc7"
  param {
    lr_mult: 1
    decay_mult: 1
  }
  param {
    lr_mult: 2
    decay_mult: 0
  }
  inner_product_param {
    num_output: 4096
    weight_filler {
      type: "gaussian"
      std: 0.005
    }
    bias_filler {
      type: "constant"
      value: 1
    }
  }
}
layer {
  name: "relu7"
  type: "ReLU"
  bottom: "fc7"
  top: "fc7"
}
layer {
  name: "drop7"
  type: "Dropout"
  bottom: "fc7"
  top: "fc7"
  dropout_param {
    dropout_ratio: 0.5
  }
}
layer {
  name: "fc8_kevin"
  type: "InnerProduct"
  bottom: "fc7"
  top: "fc8_kevin"
  param {
    lr_mult: 1
    decay_mult: 1
  }
  param {
    lr_mult: 2
    decay_mult: 0
  }
  inner_product_param {
    num_output: 48
    weight_filler {
      type: "gaussian"
      std: 0.005
    }
    bias_filler {
      type: "constant"
      value: 1
    }
  }
}
layer {
  name: "fc8_kevin_encode"
  type: "Sigmoid"
  bottom: "fc8_kevin"
  top: "fc8_kevin_encode"
}
layer {
  name: "loss_1"
  type: "EuclideanLoss"
  bottom: "fc8_kevin_encode"
  bottom: "fc8_kevin_encode"
}
layer {
  name: "loss_2"
  type: "EuclideanLoss"
  bottom: "fc8_kevin_encode"
  bottom: "fc8_kevin_encode"
}
layer {
  name: "fc8_pascal"
  type: "InnerProduct"
  bottom: "fc8_kevin_encode"
  top: "fc8_pascal"
  param {
    lr_mult: 10
    decay_mult: 1
  }
  param {
    lr_mult: 20
    decay_mult: 0
  }
  inner_product_param {
    num_output: 257
    weight_filler {
      type: "gaussian"
      std: 0.01
    }
    bias_filler {
      type: "constant"
      value: 0
    }
  }
}
layer {
  name: "loss"
  type: "SoftmaxWithLoss"
  bottom: "fc8_pascal"
  bottom: "label"
}
I0907 22:28:29.971158  3832 layer_factory.hpp:74] Creating layer data
I0907 22:28:29.972158  3832 net.cpp:90] Creating Layer data
I0907 22:28:29.972158  3832 net.cpp:380] data -> data
I0907 22:28:29.972158  3832 net.cpp:380] data -> label
I0907 22:28:29.973160  3832 net.cpp:120] Setting up data
I0907 22:28:29.973160  3832 data_transformer.cpp:22] Loading mean file from: examples/caltech/mean_train.binaryproto
I0907 22:28:29.980165  3832 common.cpp:24] System entropy source not available, using fallback algorithm to generate seed instead.
I0907 22:28:30.003180  3832 db.cpp:20] Opened leveldb examples/caltech/caltech_train_leveldb
I0907 22:28:30.006182  3832 data_layer.cpp:52] output data size: 32,3,227,227
I0907 22:28:30.013186  3832 net.cpp:127] Top shape: 32 3 227 227 (4946784)
I0907 22:28:30.014188  3832 net.cpp:127] Top shape: 32 (32)
I0907 22:28:30.014188  3832 layer_factory.hpp:74] Creating layer conv1
I0907 22:28:30.015188  3832 net.cpp:90] Creating Layer conv1
I0907 22:28:30.015188  3832 net.cpp:422] conv1 <- data
I0907 22:28:30.016190  3832 net.cpp:380] conv1 -> conv1
I0907 22:28:30.016190  3832 net.cpp:120] Setting up conv1
I0907 22:28:30.017189  3832 net.cpp:127] Top shape: 32 96 55 55 (9292800)
I0907 22:28:30.018190  3832 layer_factory.hpp:74] Creating layer relu1
I0907 22:28:30.018190  3832 net.cpp:90] Creating Layer relu1
I0907 22:28:30.019191  3832 net.cpp:422] relu1 <- conv1
I0907 22:28:30.019191  3832 net.cpp:369] relu1 -> conv1 (in-place)
I0907 22:28:30.020191  3832 net.cpp:120] Setting up relu1
I0907 22:28:30.020191  3832 net.cpp:127] Top shape: 32 96 55 55 (9292800)
I0907 22:28:30.021193  3832 layer_factory.hpp:74] Creating layer pool1
I0907 22:28:30.021193  3832 net.cpp:90] Creating Layer pool1
I0907 22:28:30.022192  3832 net.cpp:422] pool1 <- conv1
I0907 22:28:30.022192  3832 net.cpp:380] pool1 -> pool1
I0907 22:28:30.023195  3832 net.cpp:120] Setting up pool1
I0907 22:28:30.023195  3832 net.cpp:127] Top shape: 32 96 27 27 (2239488)
I0907 22:28:30.024194  3832 layer_factory.hpp:74] Creating layer norm1
I0907 22:28:30.025194  3832 net.cpp:90] Creating Layer norm1
I0907 22:28:30.025194  3832 net.cpp:422] norm1 <- pool1
I0907 22:28:30.025194  3832 net.cpp:380] norm1 -> norm1
I0907 22:28:30.026196  3832 net.cpp:120] Setting up norm1
I0907 22:28:30.026196  3832 net.cpp:127] Top shape: 32 96 27 27 (2239488)
I0907 22:28:30.027196  3832 layer_factory.hpp:74] Creating layer conv2
I0907 22:28:30.027196  3832 net.cpp:90] Creating Layer conv2
I0907 22:28:30.028198  3832 net.cpp:422] conv2 <- norm1
I0907 22:28:30.029198  3832 net.cpp:380] conv2 -> conv2
I0907 22:28:30.030197  3832 net.cpp:120] Setting up conv2
I0907 22:28:30.040205  3832 net.cpp:127] Top shape: 32 256 27 27 (5971968)
I0907 22:28:30.042207  3832 layer_factory.hpp:74] Creating layer relu2
I0907 22:28:30.043207  3832 net.cpp:90] Creating Layer relu2
I0907 22:28:30.044208  3832 net.cpp:422] relu2 <- conv2
I0907 22:28:30.044208  3832 net.cpp:369] relu2 -> conv2 (in-place)
I0907 22:28:30.045208  3832 net.cpp:120] Setting up relu2
I0907 22:28:30.046208  3832 net.cpp:127] Top shape: 32 256 27 27 (5971968)
I0907 22:28:30.046208  3832 layer_factory.hpp:74] Creating layer pool2
I0907 22:28:30.046208  3832 net.cpp:90] Creating Layer pool2
I0907 22:28:30.047209  3832 net.cpp:422] pool2 <- conv2
I0907 22:28:30.047209  3832 net.cpp:380] pool2 -> pool2
I0907 22:28:30.048209  3832 net.cpp:120] Setting up pool2
I0907 22:28:30.048209  3832 net.cpp:127] Top shape: 32 256 13 13 (1384448)
I0907 22:28:30.049211  3832 layer_factory.hpp:74] Creating layer norm2
I0907 22:28:30.049211  3832 net.cpp:90] Creating Layer norm2
I0907 22:28:30.050211  3832 net.cpp:422] norm2 <- pool2
I0907 22:28:30.050211  3832 net.cpp:380] norm2 -> norm2
I0907 22:28:30.051213  3832 net.cpp:120] Setting up norm2
I0907 22:28:30.051213  3832 net.cpp:127] Top shape: 32 256 13 13 (1384448)
I0907 22:28:30.052212  3832 layer_factory.hpp:74] Creating layer conv3
I0907 22:28:30.052212  3832 net.cpp:90] Creating Layer conv3
I0907 22:28:30.053212  3832 net.cpp:422] conv3 <- norm2
I0907 22:28:30.053212  3832 net.cpp:380] conv3 -> conv3
I0907 22:28:30.054214  3832 net.cpp:120] Setting up conv3
I0907 22:28:30.072227  3832 net.cpp:127] Top shape: 32 384 13 13 (2076672)
I0907 22:28:30.072227  3832 layer_factory.hpp:74] Creating layer relu3
I0907 22:28:30.073227  3832 net.cpp:90] Creating Layer relu3
I0907 22:28:30.074228  3832 net.cpp:422] relu3 <- conv3
I0907 22:28:30.074228  3832 net.cpp:369] relu3 -> conv3 (in-place)
I0907 22:28:30.075228  3832 net.cpp:120] Setting up relu3
I0907 22:28:30.075228  3832 net.cpp:127] Top shape: 32 384 13 13 (2076672)
I0907 22:28:30.075228  3832 layer_factory.hpp:74] Creating layer conv4
I0907 22:28:30.076228  3832 net.cpp:90] Creating Layer conv4
I0907 22:28:30.076228  3832 net.cpp:422] conv4 <- conv3
I0907 22:28:30.077229  3832 net.cpp:380] conv4 -> conv4
I0907 22:28:30.077229  3832 net.cpp:120] Setting up conv4
I0907 22:28:30.090237  3832 net.cpp:127] Top shape: 32 384 13 13 (2076672)
I0907 22:28:30.091238  3832 layer_factory.hpp:74] Creating layer relu4
I0907 22:28:30.092239  3832 net.cpp:90] Creating Layer relu4
I0907 22:28:30.092239  3832 net.cpp:422] relu4 <- conv4
I0907 22:28:30.093240  3832 net.cpp:369] relu4 -> conv4 (in-place)
I0907 22:28:30.093240  3832 net.cpp:120] Setting up relu4
I0907 22:28:30.094241  3832 net.cpp:127] Top shape: 32 384 13 13 (2076672)
I0907 22:28:30.094241  3832 layer_factory.hpp:74] Creating layer conv5
I0907 22:28:30.095242  3832 net.cpp:90] Creating Layer conv5
I0907 22:28:30.096241  3832 net.cpp:422] conv5 <- conv4
I0907 22:28:30.096241  3832 net.cpp:380] conv5 -> conv5
I0907 22:28:30.097242  3832 net.cpp:120] Setting up conv5
I0907 22:28:30.106248  3832 net.cpp:127] Top shape: 32 256 13 13 (1384448)
I0907 22:28:30.107249  3832 layer_factory.hpp:74] Creating layer relu5
I0907 22:28:30.107249  3832 net.cpp:90] Creating Layer relu5
I0907 22:28:30.108249  3832 net.cpp:422] relu5 <- conv5
I0907 22:28:30.108249  3832 net.cpp:369] relu5 -> conv5 (in-place)
I0907 22:28:30.109251  3832 net.cpp:120] Setting up relu5
I0907 22:28:30.109251  3832 net.cpp:127] Top shape: 32 256 13 13 (1384448)
I0907 22:28:30.110251  3832 layer_factory.hpp:74] Creating layer pool5
I0907 22:28:30.111253  3832 net.cpp:90] Creating Layer pool5
I0907 22:28:30.111253  3832 net.cpp:422] pool5 <- conv5
I0907 22:28:30.112253  3832 net.cpp:380] pool5 -> pool5
I0907 22:28:30.112253  3832 net.cpp:120] Setting up pool5
I0907 22:28:30.113253  3832 net.cpp:127] Top shape: 32 256 6 6 (294912)
I0907 22:28:30.114254  3832 layer_factory.hpp:74] Creating layer fc6
I0907 22:28:30.114254  3832 net.cpp:90] Creating Layer fc6
I0907 22:28:30.115254  3832 net.cpp:422] fc6 <- pool5
I0907 22:28:30.115254  3832 net.cpp:380] fc6 -> fc6
I0907 22:28:30.116255  3832 net.cpp:120] Setting up fc6
I0907 22:28:30.673626  3832 net.cpp:127] Top shape: 32 4096 (131072)
I0907 22:28:30.674628  3832 layer_factory.hpp:74] Creating layer relu6
I0907 22:28:30.674628  3832 net.cpp:90] Creating Layer relu6
I0907 22:28:30.675629  3832 net.cpp:422] relu6 <- fc6
I0907 22:28:30.675629  3832 net.cpp:369] relu6 -> fc6 (in-place)
I0907 22:28:30.676628  3832 net.cpp:120] Setting up relu6
I0907 22:28:30.676628  3832 net.cpp:127] Top shape: 32 4096 (131072)
I0907 22:28:30.676628  3832 layer_factory.hpp:74] Creating layer drop6
I0907 22:28:30.677629  3832 net.cpp:90] Creating Layer drop6
I0907 22:28:30.677629  3832 net.cpp:422] drop6 <- fc6
I0907 22:28:30.678629  3832 net.cpp:369] drop6 -> fc6 (in-place)
I0907 22:28:30.678629  3832 net.cpp:120] Setting up drop6
I0907 22:28:30.679630  3832 net.cpp:127] Top shape: 32 4096 (131072)
I0907 22:28:30.679630  3832 layer_factory.hpp:74] Creating layer fc7
I0907 22:28:30.679630  3832 net.cpp:90] Creating Layer fc7
I0907 22:28:30.680631  3832 net.cpp:422] fc7 <- fc6
I0907 22:28:30.680631  3832 net.cpp:380] fc7 -> fc7
I0907 22:28:30.681632  3832 net.cpp:120] Setting up fc7
I0907 22:28:30.916788  3832 net.cpp:127] Top shape: 32 4096 (131072)
I0907 22:28:30.917790  3832 layer_factory.hpp:74] Creating layer relu7
I0907 22:28:30.917790  3832 net.cpp:90] Creating Layer relu7
I0907 22:28:30.917790  3832 net.cpp:422] relu7 <- fc7
I0907 22:28:30.918792  3832 net.cpp:369] relu7 -> fc7 (in-place)
I0907 22:28:30.918792  3832 net.cpp:120] Setting up relu7
I0907 22:28:30.918792  3832 net.cpp:127] Top shape: 32 4096 (131072)
I0907 22:28:30.919791  3832 layer_factory.hpp:74] Creating layer drop7
I0907 22:28:30.919791  3832 net.cpp:90] Creating Layer drop7
I0907 22:28:30.919791  3832 net.cpp:422] drop7 <- fc7
I0907 22:28:30.920792  3832 net.cpp:369] drop7 -> fc7 (in-place)
I0907 22:28:30.920792  3832 net.cpp:120] Setting up drop7
I0907 22:28:30.921792  3832 net.cpp:127] Top shape: 32 4096 (131072)
I0907 22:28:30.921792  3832 layer_factory.hpp:74] Creating layer fc8_kevin
I0907 22:28:30.921792  3832 net.cpp:90] Creating Layer fc8_kevin
I0907 22:28:30.922792  3832 net.cpp:422] fc8_kevin <- fc7
I0907 22:28:30.922792  3832 net.cpp:380] fc8_kevin -> fc8_kevin
I0907 22:28:30.922792  3832 net.cpp:120] Setting up fc8_kevin
I0907 22:28:30.925794  3832 net.cpp:127] Top shape: 32 48 (1536)
I0907 22:28:30.926795  3832 layer_factory.hpp:74] Creating layer fc8_kevin_encode
I0907 22:28:30.927798  3832 net.cpp:90] Creating Layer fc8_kevin_encode
I0907 22:28:30.927798  3832 net.cpp:422] fc8_kevin_encode <- fc8_kevin
I0907 22:28:30.927798  3832 net.cpp:380] fc8_kevin_encode -> fc8_kevin_encode
I0907 22:28:30.928797  3832 net.cpp:120] Setting up fc8_kevin_encode
I0907 22:28:30.928797  3832 net.cpp:127] Top shape: 32 48 (1536)
I0907 22:28:30.928797  3832 layer_factory.hpp:74] Creating layer fc8_kevin_encode_fc8_kevin_encode_0_split
I0907 22:28:30.929797  3832 net.cpp:90] Creating Layer fc8_kevin_encode_fc8_kevin_encode_0_split
I0907 22:28:30.929797  3832 net.cpp:422] fc8_kevin_encode_fc8_kevin_encode_0_split <- fc8_kevin_encode
I0907 22:28:30.930799  3832 net.cpp:380] fc8_kevin_encode_fc8_kevin_encode_0_split -> fc8_kevin_encode_fc8_kevin_encode_0_split_0
I0907 22:28:30.931798  3832 net.cpp:380] fc8_kevin_encode_fc8_kevin_encode_0_split -> fc8_kevin_encode_fc8_kevin_encode_0_split_1
I0907 22:28:30.931798  3832 net.cpp:380] fc8_kevin_encode_fc8_kevin_encode_0_split -> fc8_kevin_encode_fc8_kevin_encode_0_split_2
I0907 22:28:30.932801  3832 net.cpp:380] fc8_kevin_encode_fc8_kevin_encode_0_split -> fc8_kevin_encode_fc8_kevin_encode_0_split_3
I0907 22:28:30.933799  3832 net.cpp:380] fc8_kevin_encode_fc8_kevin_encode_0_split -> fc8_kevin_encode_fc8_kevin_encode_0_split_4
I0907 22:28:30.933799  3832 net.cpp:120] Setting up fc8_kevin_encode_fc8_kevin_encode_0_split
I0907 22:28:30.934800  3832 net.cpp:127] Top shape: 32 48 (1536)
I0907 22:28:30.934800  3832 net.cpp:127] Top shape: 32 48 (1536)
I0907 22:28:30.935801  3832 net.cpp:127] Top shape: 32 48 (1536)
I0907 22:28:30.935801  3832 net.cpp:127] Top shape: 32 48 (1536)
I0907 22:28:30.935801  3832 net.cpp:127] Top shape: 32 48 (1536)
I0907 22:28:30.936801  3832 layer_factory.hpp:74] Creating layer loss_1
I0907 22:28:30.936801  3832 net.cpp:90] Creating Layer loss_1
I0907 22:28:30.936801  3832 net.cpp:422] loss_1 <- fc8_kevin_encode_fc8_kevin_encode_0_split_0
I0907 22:28:30.937803  3832 net.cpp:422] loss_1 <- fc8_kevin_encode_fc8_kevin_encode_0_split_1
I0907 22:28:30.938803  3832 net.cpp:380] loss_1 -> (automatic)
I0907 22:28:30.938803  3832 net.cpp:120] Setting up loss_1
…
