…
E0901 11:17:26.925596 10996 upgrade_proto.cpp:620] Attempting to upgrade input file specified using deprecated V1LayerParameter: examples/caltech/KevinNet_CIFAR10_48_train.prototxt
I0901 11:17:26.926599 10996 upgrade_proto.cpp:628] Successfully upgraded file specified using deprecated V1LayerParameter
I0901 11:17:26.927599 10996 net.cpp:42] Initializing net from parameters: 
name: "KevinNet_CIFAR10"
state {
  phase: TRAIN
}
layer {
  name: "data"
  type: "Data"
  top: "data"
  top: "label"
  transform_param {
    mirror: true
    crop_size: 227
    mean_file: "examples/caltech/mean_train.binaryproto"
  }
  data_param {
    source: "examples/caltech/caltech_train_leveldb"
    batch_size: 32
  }
}
layer {
  name: "conv1"
  type: "Convolution"
  bottom: "data"
  top: "conv1"
  param {
    lr_mult: 1
    decay_mult: 1
  }
  param {
    lr_mult: 2
    decay_mult: 0
  }
  convolution_param {
    num_output: 96
    kernel_size: 11
    stride: 4
    weight_filler {
      type: "gaussian"
      std: 0.01
    }
    bias_filler {
      type: "constant"
      value: 0
    }
  }
}
layer {
  name: "relu1"
  type: "ReLU"
  bottom: "conv1"
  top: "conv1"
}
layer {
  name: "pool1"
  type: "Pooling"
  bottom: "conv1"
  top: "pool1"
  pooling_param {
    pool: MAX
    kernel_size: 3
    stride: 2
  }
}
layer {
  name: "norm1"
  type: "LRN"
  bottom: "pool1"
  top: "norm1"
  lrn_param {
    local_size: 5
    alpha: 0.0001
    beta: 0.75
  }
}
layer {
  name: "conv2"
  type: "Convolution"
  bottom: "norm1"
  top: "conv2"
  param {
    lr_mult: 1
    decay_mult: 1
  }
  param {
    lr_mult: 2
    decay_mult: 0
  }
  convolution_param {
    num_output: 256
    pad: 2
    kernel_size: 5
    group: 2
    weight_filler {
      type: "gaussian"
      std: 0.01
    }
    bias_filler {
      type: "constant"
      value: 1
    }
  }
}
layer {
  name: "relu2"
  type: "ReLU"
  bottom: "conv2"
  top: "conv2"
}
layer {
  name: "pool2"
  type: "Pooling"
  bottom: "conv2"
  top: "pool2"
  pooling_param {
    pool: MAX
    kernel_size: 3
    stride: 2
  }
}
layer {
  name: "norm2"
  type: "LRN"
  bottom: "pool2"
  top: "norm2"
  lrn_param {
    local_size: 5
    alpha: 0.0001
    beta: 0.75
  }
}
layer {
  name: "conv3"
  type: "Convolution"
  bottom: "norm2"
  top: "conv3"
  param {
    lr_mult: 1
    decay_mult: 1
  }
  param {
    lr_mult: 2
    decay_mult: 0
  }
  convolution_param {
    num_output: 384
    pad: 1
    kernel_size: 3
    weight_filler {
      type: "gaussian"
      std: 0.01
    }
    bias_filler {
      type: "constant"
      value: 0
    }
  }
}
layer {
  name: "relu3"
  type: "ReLU"
  bottom: "conv3"
  top: "conv3"
}
layer {
  name: "conv4"
  type: "Convolution"
  bottom: "conv3"
  top: "conv4"
  param {
    lr_mult: 1
    decay_mult: 1
  }
  param {
    lr_mult: 2
    decay_mult: 0
  }
  convolution_param {
    num_output: 384
    pad: 1
    kernel_size: 3
    group: 2
    weight_filler {
      type: "gaussian"
      std: 0.01
    }
    bias_filler {
      type: "constant"
      value: 1
    }
  }
}
layer {
  name: "relu4"
  type: "ReLU"
  bottom: "conv4"
  top: "conv4"
}
layer {
  name: "conv5"
  type: "Convolution"
  bottom: "conv4"
  top: "conv5"
  param {
    lr_mult: 1
    decay_mult: 1
  }
  param {
    lr_mult: 2
    decay_mult: 0
  }
  convolution_param {
    num_output: 256
    pad: 1
    kernel_size: 3
    group: 2
    weight_filler {
      type: "gaussian"
      std: 0.01
    }
    bias_filler {
      type: "constant"
      value: 1
    }
  }
}
layer {
  name: "relu5"
  type: "ReLU"
  bottom: "conv5"
  top: "conv5"
}
layer {
  name: "pool5"
  type: "Pooling"
  bottom: "conv5"
  top: "pool5"
  pooling_param {
    pool: MAX
    kernel_size: 3
    stride: 2
  }
}
layer {
  name: "fc6"
  type: "InnerProduct"
  bottom: "pool5"
  top: "fc6"
  param {
    lr_mult: 1
    decay_mult: 1
  }
  param {
    lr_mult: 2
    decay_mult: 0
  }
  inner_product_param {
    num_output: 4096
    weight_filler {
      type: "gaussian"
      std: 0.005
    }
    bias_filler {
      type: "constant"
      value: 1
    }
  }
}
layer {
  name: "relu6"
  type: "ReLU"
  bottom: "fc6"
  top: "fc6"
}
layer {
  name: "drop6"
  type: "Dropout"
  bottom: "fc6"
  top: "fc6"
  dropout_param {
    dropout_ratio: 0.5
  }
}
layer {
  name: "fc7"
  type: "InnerProduct"
  bottom: "fc6"
  top: "fc7"
  param {
    lr_mult: 1
    decay_mult: 1
  }
  param {
    lr_mult: 2
    decay_mult: 0
  }
  inner_product_param {
    num_output: 4096
    weight_filler {
      type: "gaussian"
      std: 0.005
    }
    bias_filler {
      type: "constant"
      value: 1
    }
  }
}
layer {
  name: "relu7"
  type: "ReLU"
  bottom: "fc7"
  top: "fc7"
}
layer {
  name: "drop7"
  type: "Dropout"
  bottom: "fc7"
  top: "fc7"
  dropout_param {
    dropout_ratio: 0.5
  }
}
layer {
  name: "fc8_kevin"
  type: "InnerProduct"
  bottom: "fc7"
  top: "fc8_kevin"
  param {
    lr_mult: 1
    decay_mult: 1
  }
  param {
    lr_mult: 2
    decay_mult: 0
  }
  inner_product_param {
    num_output: 48
    weight_filler {
      type: "gaussian"
      std: 0.005
    }
    bias_filler {
      type: "constant"
      value: 1
    }
  }
}
layer {
  name: "fc8_kevin_encode"
  type: "Sigmoid"
  bottom: "fc8_kevin"
  top: "fc8_kevin_encode"
}
layer {
  name: "loss_1"
  type: "EuclideanLoss"
  bottom: "fc8_kevin_encode"
  bottom: "fc8_kevin_encode"
}
layer {
  name: "loss_2"
  type: "EuclideanLoss"
  bottom: "fc8_kevin_encode"
  bottom: "fc8_kevin_encode"
}
layer {
  name: "fc8_pascal"
  type: "InnerProduct"
  bottom: "fc8_kevin_encode"
  top: "fc8_pascal"
  param {
    lr_mult: 10
    decay_mult: 1
  }
  param {
    lr_mult: 20
    decay_mult: 0
  }
  inner_product_param {
    num_output: 257
    weight_filler {
      type: "gaussian"
      std: 0.01
    }
    bias_filler {
      type: "constant"
      value: 0
    }
  }
}
layer {
  name: "loss"
  type: "SoftmaxWithLoss"
  bottom: "fc8_pascal"
  bottom: "label"
}
I0901 11:17:26.974071 10996 layer_factory.hpp:74] Creating layer data
I0901 11:17:26.974804 10996 net.cpp:90] Creating Layer data
I0901 11:17:26.974804 10996 net.cpp:380] data -> data
I0901 11:17:26.974804 10996 net.cpp:380] data -> label
I0901 11:17:26.975806 10996 net.cpp:120] Setting up data
I0901 11:17:26.975806 10996 data_transformer.cpp:22] Loading mean file from: examples/caltech/mean_train.binaryproto
I0901 11:17:26.980809 10996 common.cpp:24] System entropy source not available, using fallback algorithm to generate seed instead.
I0901 11:17:26.996603 10996 db.cpp:20] Opened leveldb examples/caltech/caltech_train_leveldb
I0901 11:17:27.022640 10996 data_layer.cpp:52] output data size: 32,3,227,227
I0901 11:17:27.027644 10996 net.cpp:127] Top shape: 32 3 227 227 (4946784)
I0901 11:17:27.028404 10996 net.cpp:127] Top shape: 32 (32)
I0901 11:17:27.029407 10996 layer_factory.hpp:74] Creating layer conv1
I0901 11:17:27.030194 10996 net.cpp:90] Creating Layer conv1
I0901 11:17:27.030194 10996 net.cpp:422] conv1 <- data
I0901 11:17:27.031199 10996 net.cpp:380] conv1 -> conv1
I0901 11:17:27.031199 10996 net.cpp:120] Setting up conv1
I0901 11:17:27.032198 10996 net.cpp:127] Top shape: 32 96 55 55 (9292800)
I0901 11:17:27.033380 10996 layer_factory.hpp:74] Creating layer relu1
I0901 11:17:27.033380 10996 net.cpp:90] Creating Layer relu1
I0901 11:17:27.034382 10996 net.cpp:422] relu1 <- conv1
I0901 11:17:27.034382 10996 net.cpp:369] relu1 -> conv1 (in-place)
I0901 11:17:27.035382 10996 net.cpp:120] Setting up relu1
I0901 11:17:27.035382 10996 net.cpp:127] Top shape: 32 96 55 55 (9292800)
I0901 11:17:27.035382 10996 layer_factory.hpp:74] Creating layer pool1
I0901 11:17:27.036496 10996 net.cpp:90] Creating Layer pool1
I0901 11:17:27.036496 10996 net.cpp:422] pool1 <- conv1
I0901 11:17:27.037502 10996 net.cpp:380] pool1 -> pool1
I0901 11:17:27.037502 10996 net.cpp:120] Setting up pool1
I0901 11:17:27.038501 10996 net.cpp:127] Top shape: 32 96 27 27 (2239488)
I0901 11:17:27.038501 10996 layer_factory.hpp:74] Creating layer norm1
I0901 11:17:27.038501 10996 net.cpp:90] Creating Layer norm1
I0901 11:17:27.039639 10996 net.cpp:422] norm1 <- pool1
I0901 11:17:27.039639 10996 net.cpp:380] norm1 -> norm1
I0901 11:17:27.040643 10996 net.cpp:120] Setting up norm1
I0901 11:17:27.040643 10996 net.cpp:127] Top shape: 32 96 27 27 (2239488)
I0901 11:17:27.041645 10996 layer_factory.hpp:74] Creating layer conv2
I0901 11:17:27.041645 10996 net.cpp:90] Creating Layer conv2
I0901 11:17:27.042758 10996 net.cpp:422] conv2 <- norm1
I0901 11:17:27.042922 10996 net.cpp:380] conv2 -> conv2
I0901 11:17:27.042922 10996 net.cpp:120] Setting up conv2
I0901 11:17:27.048928 10996 net.cpp:127] Top shape: 32 256 27 27 (5971968)
I0901 11:17:27.049929 10996 layer_factory.hpp:74] Creating layer relu2
I0901 11:17:27.049929 10996 net.cpp:90] Creating Layer relu2
I0901 11:17:27.050930 10996 net.cpp:422] relu2 <- conv2
I0901 11:17:27.050930 10996 net.cpp:369] relu2 -> conv2 (in-place)
I0901 11:17:27.051930 10996 net.cpp:120] Setting up relu2
I0901 11:17:27.051930 10996 net.cpp:127] Top shape: 32 256 27 27 (5971968)
I0901 11:17:27.052932 10996 layer_factory.hpp:74] Creating layer pool2
I0901 11:17:27.052932 10996 net.cpp:90] Creating Layer pool2
I0901 11:17:27.053933 10996 net.cpp:422] pool2 <- conv2
I0901 11:17:27.053933 10996 net.cpp:380] pool2 -> pool2
I0901 11:17:27.053933 10996 net.cpp:120] Setting up pool2
I0901 11:17:27.054932 10996 net.cpp:127] Top shape: 32 256 13 13 (1384448)
I0901 11:17:27.054932 10996 layer_factory.hpp:74] Creating layer norm2
I0901 11:17:27.055933 10996 net.cpp:90] Creating Layer norm2
I0901 11:17:27.056432 10996 net.cpp:422] norm2 <- pool2
I0901 11:17:27.056686 10996 net.cpp:380] norm2 -> norm2
I0901 11:17:27.056686 10996 net.cpp:120] Setting up norm2
I0901 11:17:27.057695 10996 net.cpp:127] Top shape: 32 256 13 13 (1384448)
I0901 11:17:27.057899 10996 layer_factory.hpp:74] Creating layer conv3
I0901 11:17:27.057899 10996 net.cpp:90] Creating Layer conv3
I0901 11:17:27.058926 10996 net.cpp:422] conv3 <- norm2
I0901 11:17:27.058926 10996 net.cpp:380] conv3 -> conv3
I0901 11:17:27.058926 10996 net.cpp:120] Setting up conv3
I0901 11:17:27.070935 10996 net.cpp:127] Top shape: 32 384 13 13 (2076672)
I0901 11:17:27.071936 10996 layer_factory.hpp:74] Creating layer relu3
I0901 11:17:27.071936 10996 net.cpp:90] Creating Layer relu3
I0901 11:17:27.071936 10996 net.cpp:422] relu3 <- conv3
I0901 11:17:27.072937 10996 net.cpp:369] relu3 -> conv3 (in-place)
I0901 11:17:27.072937 10996 net.cpp:120] Setting up relu3
I0901 11:17:27.073937 10996 net.cpp:127] Top shape: 32 384 13 13 (2076672)
I0901 11:17:27.073937 10996 layer_factory.hpp:74] Creating layer conv4
I0901 11:17:27.073937 10996 net.cpp:90] Creating Layer conv4
I0901 11:17:27.074939 10996 net.cpp:422] conv4 <- conv3
I0901 11:17:27.074939 10996 net.cpp:380] conv4 -> conv4
I0901 11:17:27.074939 10996 net.cpp:120] Setting up conv4
I0901 11:17:27.083945 10996 net.cpp:127] Top shape: 32 384 13 13 (2076672)
I0901 11:17:27.084945 10996 layer_factory.hpp:74] Creating layer relu4
I0901 11:17:27.084945 10996 net.cpp:90] Creating Layer relu4
I0901 11:17:27.084945 10996 net.cpp:422] relu4 <- conv4
I0901 11:17:27.085945 10996 net.cpp:369] relu4 -> conv4 (in-place)
I0901 11:17:27.086307 10996 net.cpp:120] Setting up relu4
I0901 11:17:27.086307 10996 net.cpp:127] Top shape: 32 384 13 13 (2076672)
I0901 11:17:27.087308 10996 layer_factory.hpp:74] Creating layer conv5
I0901 11:17:27.087308 10996 net.cpp:90] Creating Layer conv5
I0901 11:17:27.087308 10996 net.cpp:422] conv5 <- conv4
I0901 11:17:27.088310 10996 net.cpp:380] conv5 -> conv5
I0901 11:17:27.088310 10996 net.cpp:120] Setting up conv5
I0901 11:17:27.094315 10996 net.cpp:127] Top shape: 32 256 13 13 (1384448)
I0901 11:17:27.095314 10996 layer_factory.hpp:74] Creating layer relu5
I0901 11:17:27.095314 10996 net.cpp:90] Creating Layer relu5
I0901 11:17:27.096315 10996 net.cpp:422] relu5 <- conv5
I0901 11:17:27.096315 10996 net.cpp:369] relu5 -> conv5 (in-place)
I0901 11:17:27.097317 10996 net.cpp:120] Setting up relu5
I0901 11:17:27.097317 10996 net.cpp:127] Top shape: 32 256 13 13 (1384448)
I0901 11:17:27.097753 10996 layer_factory.hpp:74] Creating layer pool5
I0901 11:17:27.097753 10996 net.cpp:90] Creating Layer pool5
I0901 11:17:27.097753 10996 net.cpp:422] pool5 <- conv5
I0901 11:17:27.098757 10996 net.cpp:380] pool5 -> pool5
I0901 11:17:27.098757 10996 net.cpp:120] Setting up pool5
I0901 11:17:27.098757 10996 net.cpp:127] Top shape: 32 256 6 6 (294912)
I0901 11:17:27.099756 10996 layer_factory.hpp:74] Creating layer fc6
I0901 11:17:27.102315 10996 net.cpp:90] Creating Layer fc6
I0901 11:17:27.103318 10996 net.cpp:422] fc6 <- pool5
I0901 11:17:27.103318 10996 net.cpp:380] fc6 -> fc6
I0901 11:17:27.103318 10996 net.cpp:120] Setting up fc6
I0901 11:17:27.684939 10996 net.cpp:127] Top shape: 32 4096 (131072)
I0901 11:17:27.684939 10996 layer_factory.hpp:74] Creating layer relu6
I0901 11:17:27.685940 10996 net.cpp:90] Creating Layer relu6
I0901 11:17:27.685940 10996 net.cpp:422] relu6 <- fc6
I0901 11:17:27.685940 10996 net.cpp:369] relu6 -> fc6 (in-place)
I0901 11:17:27.686940 10996 net.cpp:120] Setting up relu6
I0901 11:17:27.686940 10996 net.cpp:127] Top shape: 32 4096 (131072)
I0901 11:17:27.686940 10996 layer_factory.hpp:74] Creating layer drop6
I0901 11:17:27.687942 10996 net.cpp:90] Creating Layer drop6
I0901 11:17:27.687942 10996 net.cpp:422] drop6 <- fc6
I0901 11:17:27.687942 10996 net.cpp:369] drop6 -> fc6 (in-place)
I0901 11:17:27.688942 10996 net.cpp:120] Setting up drop6
I0901 11:17:27.688942 10996 net.cpp:127] Top shape: 32 4096 (131072)
I0901 11:17:27.689944 10996 layer_factory.hpp:74] Creating layer fc7
I0901 11:17:27.689944 10996 net.cpp:90] Creating Layer fc7
I0901 11:17:27.689944 10996 net.cpp:422] fc7 <- fc6
I0901 11:17:27.690944 10996 net.cpp:380] fc7 -> fc7
I0901 11:17:27.690944 10996 net.cpp:120] Setting up fc7
I0901 11:17:27.929101 10996 net.cpp:127] Top shape: 32 4096 (131072)
I0901 11:17:27.930104 10996 layer_factory.hpp:74] Creating layer relu7
I0901 11:17:27.930104 10996 net.cpp:90] Creating Layer relu7
I0901 11:17:27.931105 10996 net.cpp:422] relu7 <- fc7
I0901 11:17:27.931105 10996 net.cpp:369] relu7 -> fc7 (in-place)
I0901 11:17:27.931105 10996 net.cpp:120] Setting up relu7
I0901 11:17:27.932104 10996 net.cpp:127] Top shape: 32 4096 (131072)
I0901 11:17:27.932104 10996 layer_factory.hpp:74] Creating layer drop7
I0901 11:17:27.933104 10996 net.cpp:90] Creating Layer drop7
I0901 11:17:27.933104 10996 net.cpp:422] drop7 <- fc7
I0901 11:17:27.933104 10996 net.cpp:369] drop7 -> fc7 (in-place)
I0901 11:17:27.934106 10996 net.cpp:120] Setting up drop7
I0901 11:17:27.934106 10996 net.cpp:127] Top shape: 32 4096 (131072)
I0901 11:17:27.934106 10996 layer_factory.hpp:74] Creating layer fc8_kevin
I0901 11:17:27.935106 10996 net.cpp:90] Creating Layer fc8_kevin
I0901 11:17:27.935106 10996 net.cpp:422] fc8_kevin <- fc7
I0901 11:17:27.935106 10996 net.cpp:380] fc8_kevin -> fc8_kevin
I0901 11:17:27.936108 10996 net.cpp:120] Setting up fc8_kevin
I0901 11:17:27.939110 10996 net.cpp:127] Top shape: 32 48 (1536)
I0901 11:17:27.940110 10996 layer_factory.hpp:74] Creating layer fc8_kevin_encode
I0901 11:17:27.957087 10996 net.cpp:90] Creating Layer fc8_kevin_encode
I0901 11:17:27.958086 10996 net.cpp:422] fc8_kevin_encode <- fc8_kevin
I0901 11:17:27.958086 10996 net.cpp:380] fc8_kevin_encode -> fc8_kevin_encode
I0901 11:17:27.959091 10996 net.cpp:120] Setting up fc8_kevin_encode
I0901 11:17:27.959091 10996 net.cpp:127] Top shape: 32 48 (1536)
I0901 11:17:27.960086 10996 layer_factory.hpp:74] Creating layer fc8_kevin_encode_fc8_kevin_encode_0_split
I0901 11:17:27.960086 10996 net.cpp:90] Creating Layer fc8_kevin_encode_fc8_kevin_encode_0_split
I0901 11:17:27.961087 10996 net.cpp:422] fc8_kevin_encode_fc8_kevin_encode_0_split <- fc8_kevin_encode
I0901 11:17:27.961087 10996 net.cpp:380] fc8_kevin_encode_fc8_kevin_encode_0_split -> fc8_kevin_encode_fc8_kevin_encode_0_split_0
I0901 11:17:27.962088 10996 net.cpp:380] fc8_kevin_encode_fc8_kevin_encode_0_split -> fc8_kevin_encode_fc8_kevin_encode_0_split_1
I0901 11:17:27.963089 10996 net.cpp:380] fc8_kevin_encode_fc8_kevin_encode_0_split -> fc8_kevin_encode_fc8_kevin_encode_0_split_2
I0901 11:17:27.963089 10996 net.cpp:380] fc8_kevin_encode_fc8_kevin_encode_0_split -> fc8_kevin_encode_fc8_kevin_encode_0_split_3
I0901 11:17:27.964089 10996 net.cpp:380] fc8_kevin_encode_fc8_kevin_encode_0_split -> fc8_kevin_encode_fc8_kevin_encode_0_split_4
I0901 11:17:27.965090 10996 net.cpp:120] Setting up fc8_kevin_encode_fc8_kevin_encode_0_split
I0901 11:17:27.965090 10996 net.cpp:127] Top shape: 32 48 (1536)
I0901 11:17:27.965090 10996 net.cpp:127] Top shape: 32 48 (1536)
I0901 11:17:27.966090 10996 net.cpp:127] Top shape: 32 48 (1536)
I0901 11:17:27.966090 10996 net.cpp:127] Top shape: 32 48 (1536)
I0901 11:17:27.966090 10996 net.cpp:127] Top shape: 32 48 (1536)
I0901 11:17:27.967092 10996 layer_factory.hpp:74] Creating layer loss_1
I0901 11:17:27.967092 10996 net.cpp:90] Creating Layer loss_1
I0901 11:17:27.967092 10996 net.cpp:422] loss_1 <- fc8_kevin_encode_fc8_kevin_encode_0_split_0
I0901 11:17:27.968092 10996 net.cpp:422] loss_1 <- fc8_kevin_encode_fc8_kevin_encode_0_split_1
I0901 11:17:27.968092 10996 net.cpp:380] loss_1 -> (automatic)
I0901 11:17:27.969094 10996 net.cpp:120] Setting up loss_1
…
